code/compare/final_model.pth (torch, 41136 bytes, 6 tensors)

layers.0.weight f4 [64, 9]
00000000: c1cd 30bf 40f0 75bf 281a 4c3f 747a cf3d
00000010: 8ebf de3d 1b42 563d 4836 4dc1 6e24 4bc1
00000020: 1681 48c1 8ab7 f0bf d234 52bf b5af 793f
00000030: d080 91bc 4a93 b6bd 38e5 04be a1e8 6b40
00000040: 454e 5c40 8f00 5340 2995 1a3f 5e2b bfbf
00000050: 6e36 7e3e 8036 c23d ec83 aebc f47f b8bd
00000060: d8c2 f040 f49b f040 e816 f040 c798 d7bf
00000070: cdc6 26bf 7fe9 343f 530e 22be b290 e43d
00000080: eea4 853d 07a1 a740 8d20 b840 f5ee ae40
00000090: b0d5 abbc 77d7 a1be f0f4 c9bc 4891 7bbd
000000a0: 63bd 50be 066f 6b3e 67f3 9a3e 7383 03be
000000b0: c07a 9e3b af20 953e 7edf 29be 88ac 4fbe
000000c0: 9e38 103e b9e8 963e 3d93 a33e f01a a0bd
000000d0: 54b6 ce3d e897 6abd e2f3 93be 269c 71be
000000e0: 706a a0bd 9968 843e 0071 09be 1499 a0bd
000000f0: a653 723e 151d a73e 4832 70bd 2395 94bf
00000100: 4c0d c7bf c628 3b3f c915 1d3e 62c7 d1bd
00000110: 9da5 27be 0b3f d4bf c01d 09c0 6940 fabf
00000120: 7e17 4f3e fe2b 11be 473a a2be a43c d23d
00000130: 9c10 d23d 3f06 a03e fb04 15be f780 853e
00000140: e0f9 eb3d e03f dcbd 4250 4e3e 28c7 99be
00000150: 7419 ad3d 2c3b c0bd 36b7 5cbe 400f 0d3e
00000160: 6b37 903e 0e61 473e 2d99 d73c fcb4 dfbd
00000170: 4e19 08bc d5e7 fb3d d608 29be 8b9e ac3d
00000180: 0808 91bf 4213 3dbf 3282 2cbf f740 35c0
00000190: 6f5e 1840 661f 1dbf 5da1 83be d0cb 26be
000001a0: 4dfc b53d 2b95 6140 91a1 4240 df18 5640
000001b0: 3cfb c0bd 00a6 aabd e801 1bbd 00bb f73d
000001c0: 3c12 d63d 195f 8b3e 00aa 033b 1383 44be
000001d0: fa5f 743e 27d7 67bf a0c7 583e 592e e53e
000001e0: ae92 fe3a 72fa cabd b27c f03d 2ab2 b93f
000001f0: c206 ab3f c0bb ac3f f96b cd3c 93a1 58be
00000200: d50c 6abc faec 943e e017 89be 1913 9f3d
00000210: 39dd 18bf c444 bcbe 636d 11bf e6a2 ad3d
00000220: 1b59 cc3d 191b c4bd 4b8d 153e 2a41 70be
00000230: ddd2 773e 501d 78be c306 f0be 36c7 173e
00000240: ecde 83bf cbba 5ac0 0310 7d3f 205e c1bd
00000250: 9398 e4bc 8ec1 8bbd 630f 2c40 9de7 2a40
00000260: d11c 1040 94c9 a7be 40ee ec3d 0c25 a0be
00000270: c0b0 f3bd 48e1 8fbe fc80 a2be dc42 d3bd
00000280: a0da 3a3c 2654 bcbd 949c b53d 9cc3 a7be
00000290: 388b 43bd c084 08be 28da 5abe 008f 27bc
000002a0: 82ce 063e c0bc f03d 20a7 da3d 68a9 febd
000002b0: 2828 86bc 3312 583b 7c07 9d3d b318 4c3d
000002c0: 46b3 8f3d 89a0 76be fdcb 08bd 5cf1 14bf
000002d0: 20ba 6b3c c011 89bc d461 9dbd 243a 8fbe
000002e0: 6e7a 3e3e ced2 1d3e 9ba8 4dbe 706b a5be
000002f0: 009a 793d 0078 93ba c75f 80be 80a0 91bc
00000300: 0e71 443e 0215 763e 0af7 80be 089d 6ebd
00000310: 0c21 ffbd 8b86 a43e 7f40 86bf 34ca 57bf
00000320: 1739 e63e 416f 49be cbeb 783e d47f 44be
00000330: 9318 fbbf 8c06 d4bf 6461 e8bf 7357 44be
00000340: 006c 60be b086 45be 6caa 91be b0ec e43d
00000350: 28a0 40bd 4100 aa3e 4edf 5d3e f2bf 4b3e
00000360: 23a5 463c cacd a63d 773a 36bd e0c6 083e
00000370: 60a1 b0bc 17f4 1cbd c709 c2bd 1e01 ffbc
00000380: bfb9 93be 182c a8bf 727b 303f 234a e23e
00000390: 6a0a 933d 24e6 bfba 5ea5 95bc fb23 1040
000003a0: afc9 2340 814f 2040 4a56 68c0 3b22 f13f
000003b0: bb05 073d 4504 9e3d eba2 c93d 7a56 5fbd
000003c0: 4e66 c1bf 1e5a c2bf b084 a8bf 95bc 8a3e
000003d0: 6a91 343e efe6 a5be 188f 5cbe 3040 9abe
000003e0: 995b a23e cce6 96bd c0ca ed3c 5c9c cebd
000003f0: 3720 debf d2cc f9bf 877c 773f 9456 ca3c
-0.69063956 -0.9606972 0.7972741 0.10130778 0.1087638 0.052309137 -12.825752 -12.696394
-12.531515 -1.8806012 -0.8211185 0.9753373 -0.017761618 -0.08914812 -0.12978065 3.6860735
3.4422772 3.296909 0.6038385 -1.493511 0.24825451 0.09483051 -0.02130314 -0.0900878
7.5237846 7.5190372 7.502796 -1.6843499 -0.65147096 0.70668787 -0.15825777 0.11160411
0.065255985 5.2384067 5.7539735 5.4666696 -0.020975918 -0.316097 -0.024652928 -0.061417848
-0.20384745 0.22991571 0.30263826 -0.12843113 0.0048364103 0.29126498 -0.16589162 -0.20280659
0.14084098 0.29474428 0.3194827 -0.07817638 0.1009337 -0.057273775 -0.28897005 -0.23594722
-0.07832801 0.25861052 -0.13422012 -0.07841697 0.23664722 0.32639375 -0.058641702 -1.1608013
-1.5550933 0.7310909 0.15340342 -0.102431074 -0.1637177 -1.6581739 -2.1424408 -1.9550906
0.20223805 -0.14176938 -0.31685087 0.102654725 0.10257074 0.31254765 -0.14552681 0.26074955
0.11522269 -0.10754371 0.20147803 -0.30034757 0.084521204 -0.09386286 -0.21554264 0.13775349
0.2816728 0.19470617 0.026318157 -0.10923192 -0.008306814 0.12300078 -0.16507277 0.08428677
-1.1330576 -0.7385751 -0.6738616 -2.8320901 2.3807638 -0.61376035 -0.25709048 -0.16288686
0.08886013 3.5247295 3.0411112 3.345268 -0.09422919 -0.08332443 -0.037843615 0.12096214
0.10452697 0.2722099 0.0020090342 -0.19190626 0.23864737 -0.9056267 0.21169901 0.44761923
0.0019422376 -0.0991105 0.11742534 1.4507496 1.3361437 1.3494797 0.0250759 -0.21155386
-0.014285286 0.2908705 -0.26776028 0.077673145 -0.5971256 -0.36771214 -0.56807536 0.08478336
0.09977933 -0.09575481 0.1460468 -0.23462358 0.24201532 -0.24229932 -0.4688016 0.14822087
-1.0302405 -3.417651 0.98852557 -0.09441781 -0.027904784 -0.06824027 2.6884391 2.6703866
2.2517588 -0.3277098 0.1156888 -0.31278265 -0.11898947 -0.28101563 -0.31739032 -0.10315487
0.011404663 -0.091957375 0.088677555 -0.32766426 -0.04774019 -0.1333189 -0.21372283 -0.010226965
0.13164714 0.11754751 0.10676408 -0.124346554 -0.01637657 0.0032969832 0.07667443 0.049828243
0.070166156 -0.24084677 -0.033397663 -0.58180785 0.014387637 -0.016732097 -0.07684675 -0.27974045
0.1860139 0.15412447 -0.20083849 -0.3230853 0.06093788 -0.0011250973 -0.25073072 -0.017776728
0.19183752 0.24031451 -0.25188476 -0.058255225 -0.12457475 0.32133898 -1.0488433 -0.8429291
0.4496543 -0.19671346 0.24308698 -0.19189388 -1.9616874 -1.6564498 -1.8154721 -0.19173984
-0.21916199 -0.1928966 -0.28450334 0.11177957 -0.047027737 0.3320332 0.21667215 0.1989744
0.012124333 0.0814472 -0.04448935 0.13357115 -0.021561325 -0.03831872 -0.09474521 -0.031128462
-0.2885265 -1.3138456 0.6893836 0.44197187 0.07179721 -0.0014640731 -0.01826733 2.252196
2.5591848 2.5048525 -3.6302667 1.8838571 0.03296445 0.07715658 0.09845527 -0.05452583
-1.5109346 -1.5183752 -1.3165493 0.27097002 0.17633596 -0.3240275 -0.21538961 -0.30127096
0.31710508 -0.0736824 0.029027343 -0.10088417 -1.7353581 -1.9515631 0.9667439 0.024699487

layers.0.bias f4 [64]
00000000: 4dd1 49c1 1fb0 6a40 dd82 e840 c6aa ae40
00000010: 38bf 85be 9a54 113e 43d2 5cbe b1a3 dbbf
00000020: 56ff 7abe 18cd 143e a04b 97bf b907 6040
00000030: 66e9 793e 8edf b73f 4fc8 6fbe 46bb e2be
00000040: dd58 1440 70f8 f83d 06c6 f6bd efbd a0be
00000050: 7923 963e d691 d4bd b18d 0cc0 cc96 9abd
00000060: 2a38 05bf e369 3740 614b bfbf ec46 fd3d
00000070: 208f 3840 499d c2be 1eeb 4a3e e971 c940
00000080: 8614 be40 7e81 33be 920f 7ebf c4c3 02bf
00000090: 92c1 0440 8ebb 23be 88f0 3cbd dacf 2a3e
000000a0: 065f 1e3e 3447 a2c0 6d3c 2540 f3ae 04c1
000000b0: 50b9 963c 43c5 f640 896c 88be 2f46 22c0
000000c0: 8b0f 73be 3975 dabd 73f4 9e3e 0efe c5c0
000000d0: 1de0 e740 3cb5 6540 d686 3dbe 692f a53e
000000e0: c536 783f b20c 10c0 eeae 22be 4e87 743e
000000f0: 1aa0 553e b9c0 883e e81b 2d40 004d 4cbe
-12.613599 3.6669996 7.2659745 5.4583464 -0.2612245 0.14192429 -0.21564583 -1.715933
-0.24511465 0.14531362 -1.1819954 3.5004714 0.2440544 1.4365098 -0.23416255 -0.44283503
2.3179238 0.12156761 -0.12049489 -0.31394908 0.29323938 -0.103793785 -2.1961482 -0.075482935
-0.52038825 2.8658378 -1.4944879 0.12367043 2.8837357 -0.38010624 0.19816253 6.295155
5.9400053 -0.17529866 -0.9924251 -0.51079965 2.0743146 -0.15989515 -0.046127826 0.16680852
0.15465936 -5.071192 2.581813 -8.292712 0.01839891 7.71158 -0.26645306 -2.5355337
-0.23736398 -0.1066689 0.31045875 -6.1872625 7.2461076 3.5891867 -0.18508467 0.32262734
0.9695857 -2.2507749 -0.15887043 0.2387974 0.20861855 0.26709536 2.7048283 -0.19951248

layers.2.weight f4 [128, 64]
00000000: e69d 5c3d e08f c4bd ab94 cdbd 7fe5 1cbe
00000010: 64a2 e83d 9070 493d 1cd5 85bd be24 8fbd
00000020: b49e 62bd d8d5 c7bd fa5e c2bd f479 41bd
00000030: 447e 333d 4ce4 f6bd cb92 163d 5903 a7bd
00000040: dc4c 953d 7046 e8bd 2654 e03d 13a3 9cbd
00000050: e831 d43c 0094 f7ba 84d0 febd e8e3 af3c
00000060: d69f a43d 5df3 03be eb1b b4bd d26b c5bd
00000070: e2df 00be 6247 e7bc f89a 843d 025a ae3d
00000080: 4ef8 5fbd 1874 13bd e0a8 09be d34e c43a
00000090: a784 08be 4693 b33d d881 193d 007e 8eb9
000000a0: 3029 2cbc 3684 4ebd 3f6b 273d d813 d0bb
000000b0: 2666 f1bd e4c1 cfbd 0294 1bbe e80d 1dbd
000000c0: f06d 883c 1303 b63c 54ef 7bbd 5d2a c7bd
000000d0: d624 a83d 7cb2 363d 9049 d83c c647 a73d
000000e0: 366a 443c 42d1 3cbd 82d7 f43d 9e10 8b3d
000000f0: ac4d 25bd 687d 8d3c aa57 01be 203b d9bc
00000100: 8b82 a73d 326f 813d 0d47 3abd a6a7 1dbe
00000110: 90c8 aa3d 187d 19bd f4a4 65bd 2503 e6bd
00000120: 8810 f8bc fe25 fc3d ca32 10be dc1b ff3c
00000130: 104b a6bd 5123 8dbc a5f3 e7bd 1e30 f7bd
00000140: 89c7 d6bb 28fe c2bc f4a7 0abd bbe8 443b
00000150: 8081 cabc 141d 18bd 6bb0 16bc ec3d dd3d
00000160: 6064 81bd 583f 20be 893c 173e 62e7 8ebd
00000170: ce73 bebd fb5e 393d 3c14 22bd 3f63 aabd
00000180: ff5b 42be 3a8b e53d 1f9c aabd 3e7c babd
00000190: de12 8abd 301a 20bd 68a6 bf3c d8b2 8f3d
000001a0: 9472 2dbd 8a37 abbd 51b7 6c3c beeb 4d3c
000001b0: ac14 c2bd a9d0 3dbd fbc6 f2bd 4f37 a8bd
000001c0: c176 2fbe 805d 6fbc fc5f 25bd f123 b6bc
000001d0: c55a 48bd f5ad 9dbb 98f4 2a3d 5863 593d
000001e0: ee42 643d 6a2d ddbd 1e46 803d 0a6b 913d
000001f0: 7c10 a4bd c08e 153c 0534 133d b2a5 e33d
00000200: 06b2 4ebd 9e9d 1c3d 1c2d 15bd 75f7 30bd
00000210: 4864 75bd 50e0 f5bd 709f f0bd 9cf3 4ebd
00000220: 8026 963b 2a12 84bd ed65 7a3c 581c 3ebd
00000230: 4025 6c3c a395 34bd e417 a1bd 6266 b23d
00000240: e2f5 1639 0cee cabd 4cd5 67bd 9967 1ebd
00000250: b24e e1bd f4bd 003d 911d 993d c0a6 733c
00000260: 4894 ffbd ad49 98bc 3570 8a3c 78ae 6cbd
00000270: 15d5 443c e790 5abd 9c09 463d 1eb1 b4bd
00000280: 229b cbbd 2858 cabc 23ff 8a3b 9184 15be
00000290: bc65 acbd 080b db3d f4ee ba3d 0ef0 dc3d
000002a0: 78e4 e8bd cf73 c1bc bc41 233d 23ad dcbd
000002b0: 5259 c8bd 36a2 dfbd f431 963d 6929 2a3d
000002c0: 3578 1ebe 3c3e 383d 1834 f93c 597e 28bd
000002d0: 5f4a f6bc 31de aabd b220 fdbd e891 5a3d
000002e0: 1a79 173d 931b babb 0a76 8ebd e4b0 653d
000002f0: 289b 8d3c 0420 20bd 5ce5 16be b2c4 b4bd
00000300: 12a8 d5bf 7779 b0be a52e 17bd 687b 04c0
00000310: 16f7 d4bd 3cec b9bd 7651 e73d 4ca5 dc3c
00000320: d06c 61bc 103a 823d 67b6 c93d 9854 fbbd
00000330: a004 723c 1470 98bc c37e 8bbe 69a1 623d
00000340: 3b13 f5bd 5068 d83c 4048 133b bd5d d63d
00000350: 905c 3d3d 7c3e de3d 2fa9 c9bc 220f 9d3d
00000360: 0f3c 273d 5b03 933e a8e5 3dc1 b2bc c53d
00000370: 067e 15be 8c79 0a3d 76bb e2bd a95a acbf
00000380: e063 c1bd 1ce4 023d b482 3ebe fbf8 1ebc
00000390: 06d8 a6bf c09f 21bb 60e8 30bc 848d 063d
000003a0: c46a 10bd b1cd 793f 5653 543d 842b fcbd
000003b0: 2cfd 32bd 8232 343e ffa6 673d b5ec b2bd
000003c0: 1b8b 28bf 9f4e 173d c0c6 4a3c 8391 91bd
000003d0: 2f4d f0be 92a8 0fbf 0659 bd3d 686d ebbc
000003e0: 3f4e cfba 2f63 75bd a8e4 4b3d acd9 69bd
000003f0: 9cca c23d 9e84 8cbd c301 6f3d 98ee 97bc
0.05386152 -0.095977545 -0.10038122 -0.15321921 0.113590986 0.049179614 -0.06534788 -0.0698943
-0.055327132 -0.09757584 -0.094907716 -0.047235444 0.04382159 -0.12055263 0.036761086 -0.081549354
0.072900504 -0.1134156 0.1095355 -0.076482914 0.025902703 -0.0018888712 -0.12442115 0.021470979
0.08038299 -0.12885804 -0.087943874 -0.09639706 -0.12585405 -0.02823228 0.064748704 0.085132614
-0.05468016 -0.035999388 -0.13443327 0.0014977105 -0.13331853 0.087683246 0.037477344 -0.00027178228
-0.010507867 -0.050419055 0.040873762 -0.006350022 -0.117870614 -0.101444036 -0.15193179 -0.03834334
0.016653985 0.022218263 -0.061507538 -0.09724877 0.08210151 0.04460381 0.026402265 0.081679866
0.011988213 -0.046098 0.11955167 0.06790279 -0.040357277 0.017271712 -0.12631097 -0.02651745
0.08179196 0.06320037 -0.045477916 -0.15395984 0.083390355 -0.037472814 -0.056065515 -0.112310685
-0.03028132 0.12311934 -0.14081874 0.031141214 -0.08119786 -0.017228754 -0.113257684 -0.120697245
-0.006554548 -0.023802832 -0.03385158 0.0030045945 -0.024719954 -0.037137106 -0.009197335 0.10802826
-0.06317973 -0.15649164 0.14769186 -0.069777265 -0.09299432 0.045256596 -0.03957008 -0.08319711
-0.18980406 0.11208196 -0.08330559 -0.091057286 -0.0674188 -0.039087474 0.023394778 0.070165336
-0.0423456 -0.083602026 0.014448003 0.012568412 -0.09476599 -0.046341572 -0.11854359 -0.08213674
-0.17135145 -0.0146096945 -0.04037474 -0.022233935 -0.04891469 -0.004811997 0.04173717 0.053073257
0.05572789 -0.10799678 0.06263374 0.07100494 -0.08010957 0.0091282725 0.03593828 0.11115588
-0.050462745 0.038236253 -0.036419973 -0.043204743 -0.05991009 -0.12005675 -0.1174916 -0.050525293
0.0045822263 -0.06448777 0.01528309 -0.04641375 0.014413178 -0.044088017 -0.07865885 0.08710934
0.00014396713 -0.09908685 -0.0565999 -0.038673017 -0.11001338 0.031431153 0.074763425 0.014871299
-0.12479454 -0.018589819 0.016899208 -0.057783574 0.012013693 -0.053360846 0.048349008 -0.08822845
-0.099416986 -0.02470024 0.0042418404 -0.14601351 -0.08417842 0.106954634 0.09127608 0.10787974
-0.11371702 -0.023614792 0.03985761 -0.10775211 -0.097826615 -0.10919611 0.073337466 0.041543398
-0.15475543 0.044981226 0.030420348 -0.04113612 -0.03006476 -0.08343161 -0.12359752 0.053361803
0.036980726 -0.0056795566 -0.06956108 0.0560769 0.017285898 -0.039093032 -0.14735931 -0.08826579
-1.6691916 -0.3446767 -0.036909718 -2.0700321 -0.103986904 -0.09078261 0.11294834 0.026934288
-0.013758853 0.06358731 0.098492436 -0.12271994 0.0147716105 -0.01860813 -0.2724515 0.055329714
-0.119665585 0.026416928 0.0022473484 0.10467098 0.046230853 0.10851762 -0.024616806 0.07668902
0.04082876 0.28713498 -11.868568 0.096551314 -0.14598855 0.033807322 -0.110709116 -1.3465167
-0.09442878 0.031955823 -0.18604547 -0.009702916 -1.3034675 -0.0024661869 -0.01079759 0.032849804
-0.03525807 0.97579485 0.051837288 -0.123129874 -0.043698475 0.17597392 0.056555744 -0.087365545
-0.6583726 0.036940213 0.012376487 -0.07107832 -0.46933886 -0.5611659 0.092454955 -0.028738692
-0.0015816166 -0.059909042 0.04977861 -0.057092354 0.09511301 -0.06861232 0.05835129 -0.018546388

layers.2.bias f4 [128]
00000000: ed62 00be da8f d4bd e6a3 30be 56e5 62bf
00000010: 36e5 37be 753b 76ba 89dc f5be 9842 d5b9
00000020: a5d9 1dbe a41e 14be 7f2a 67bd 7b6b 7bbe
00000030: 89ca a83d 0030 403d 46ac 10be 7896 6ec0
00000040: 06f0 98bd 9223 ec3c 5b5d 813d 2818 d4bb
00000050: 9477 2e3d 1a87 7ebc 16c8 48be 6cb3 aebd
00000060: 4b86 0bbe a3d9 8bbc 3dfb c53f ccce 17be
00000070: 35bd 1abe 4301 d13c ab48 b3c0 c4a0 c0bd
00000080: c14a 5d3d 17be 173d 7b76 8fc0 dcf6 c2bd
00000090: bf18 e2bd d397 0dbd 9689 8ebd 0d04 16be
000000a0: fcb5 d93f 8049 90bd 9dd2 00be 3f9b 46bc
000000b0: afdd abbd 2b6e 0bbe df3e 9640 35df 033d
000000c0: 5bb5 ba3b 8707 46be 84c2 06be d8e5 37bc
000000d0: e124 22be c6ff 17bd 06a9 6dbc 49f7 a73d
000000e0: fe99 23be 431d 6dbc edd8 13bd ac84 2340
000000f0: 1e99 e4bd 0e53 11be d0b9 d3bd db7a 95bd
00000100: 6127 47bb 496e d540 386e ff40 4933 1bbe
00000110: 5b54 38c0 3a83 b9bd 0954 0dbe 68d8 59bd
00000120: da1c c6bd 9355 55bd 4f59 32c1 8d0f 01be
00000130: f739 36c1 d01f 61bd 380d 8dbd 4307 27c0
00000140: 8429 04be a89e be39 9bf8 9c3d b0b0 61bd
00000150: 1be4 91bd e32f dabc c642 1fbe 73f2 fabe
00000160: ad90 cabd c76d aebf f037 1cc0 51ee 933c
00000170: 02da 8dbc f728 723d 62b4 47c1 7353 14be
00000180: 6235 c33c 227a a83d 4ee1 d6bd 6359 08bd
00000190: f8b9 21be 8f19 8bbe e4db 12c0 5b24 98bd
000001a0: b03e 4b3d 7248 bec0 8bad 37bd 43ae b8bd
000001b0: 4309 42be 9223 323c 3c68 07bd 9b05 73be
000001c0: 4dc0 94c1 68fc 4ac0 e140 af3d 440f 793d
000001d0: 8393 aebd de75 d8bc 9199 0cbe f319 60bd
000001e0: 9006 dabd 7d76 8fbd 3e2a 08be b721 32be
000001f0: 11d5 89bb 3041 46bd 5f48 5fbe 1899 58c1
-0.12537737 -0.10379 -0.17250022 -0.8863119 -0.17958531 -0.0009393015 -0.48019817 -0.00040676142
-0.15415056 -0.14464813 -0.05643701 -0.2455272 0.082417555 0.046920776 -0.14128217 -3.727934
-0.07467656 0.028825555 0.06316634 -0.006472606 0.042594507 -0.01553514 -0.19607577 -0.08530316
-0.13625447 -0.01707155 1.5467297 -0.1482498 -0.15111239 0.025513297 -5.6026206 -0.094056636
0.05402637 0.03704652 -4.483213 -0.09519741 -0.11039876 -0.03456862 -0.06959836 -0.14649983
1.7008662 -0.07045269 -0.12580343 -0.0121219745 -0.08391892 -0.13616244 4.6951747 0.03219529
0.005697889 -0.19338809 -0.1316014 -0.011224233 -0.1583438 -0.03710916 -0.01450563 0.08201463
-0.15976712 -0.014472309 -0.03609555 2.5549726 -0.11162017 -0.14191839 -0.10338175 -0.072988234
-0.0030388462 6.6697125 7.9822044 -0.15156282 -2.8801486 -0.090582326 -0.13801588 -0.053184897
-0.09673472 -0.052083563 -11.146804 -0.12603588 -11.389152 -0.05496198 -0.06887287 -2.6098182
-0.12906462 0.00036357832 0.07664605 -0.055100143 -0.07123586 -0.026634162 -0.15552816 -0.490131
-0.09890876 -1.3627251 -2.4409142 0.018057974 -0.017315868 0.0591211 -12.481539 -0.14484958
0.023829166 0.0822642 -0.10492192 -0.03328837 -0.15793598 -0.27167937 -2.294671 -0.07428809
0.04962033 -5.9463434 -0.044843238 -0.09017613 -0.18948846 0.010872738 -0.03305839 -0.23732607
-18.593897 -3.1716557 0.085572965 0.060805574 -0.085242294 -0.026423391 -0.13730456 -0.054712247
-0.10645783 -0.07005022 -0.13297364 -0.17395674 -0.0042063077 -0.04840201 -0.21804951 -13.537376

layers.4.weight f4 [5, 128]
00000000: 9a0e d2bc a101 7dbd 34c8 83bc df74 9ebf
00000010: ff2b 653c 8592 bbbb 1623 38bb 9eb7 5637
00000020: d3ef 3cbb b009 063d 9a4c 9fbc 2f91 e43c
00000030: b990 3dbd b34b 1fbd 447d a63c 351b 56bf
00000040: 94d7 d13c 1b7a 3f3d bb4c c53c 08d3 b7bb
00000050: 008c 4ebd 9250 5ebd 2679 bc3c 6c95 6fbd
00000060: b118 a3bd 32e5 96bd ca9f f03b 6c70 9abc
00000070: c131 dc3c e509 1d3c b5f3 26bd 784a 96bc
00000080: 51c0 4abc bf59 c93c 4f19 30bf c0a5 ad3c
00000090: f3bd c03b 3e9a 2b3c e4bf 70bd 529d b7bc
000000a0: 7d57 0cbd 9e6f 1bbc 71f1 4cbd d749 6f3c
000000b0: 5da2 bebd 4f54 59bc 2609 c8bc 2971 21bd
000000c0: acde 2dbd f79f 59bd 0639 203d 857b 08bd
000000d0: 554b b3bc a293 f83c 0919 f73c 91ce 273c
000000e0: 18f2 193d b7d4 60bc ebfc 6bbd e1a9 b4bd
000000f0: ac15 88bd dbbd 7abd 6766 4f3c ef3c 6a3d
00000100: 8d3d 9fbd a5ab fb3b 9973 e8bd b699 8b3c
00000110: a253 d33c 8020 93ba e3f1 613d e990 30bd
00000120: e107 b33c 1071 2abb 4dc8 4a3d b52b 2d3c
00000130: af8d a8be 302c 063c ef0d 69bd 8b64 323e
00000140: 803b 173c 98ac a6bc 9e26 673d 52a3 c33c
00000150: 00f8 3f3c 1a8b 85bd e07e ddbd 84b5 2dbe
00000160: 0064 7d3d 509a a03d 7bbe 1abe d149 a7bd
00000170: 47c6 a4bd 1a8a 5fbd 167a d23c e847 2abd
00000180: 6715 35bd 8cac 7b3a 36f3 e3bc b1b0 66bd
00000190: 4491 b8bc 4635 2c3d 63a9 ac3e 85a6 5c3c
000001a0: 2abd 00bd 3a66 473d c649 583c 3034 08bd
000001b0: 4e09 3ebd 101a ae3d c336 303c b9c0 0b3c
000001c0: 8c72 e43d 0b3d 92bd 7480 10bd e692 cbbd
000001d0: 2378 bcbc 66be 96bc d3c7 77bc 1214 17bd
000001e0: 96a6 3d3d b2b5 2ebd 4912 0a3c cf0c ca3d
000001f0: f7cf 2dbd e41c af3d c259 843b c86f 863c
00000200: 56de e3bd 174d 7fbd 0bc4 e7bd e653 4cc1
00000210: a122 a0bb ccab 05be b47b 373d f134 d5bc
00000220: 1942 1cbd cd23 8ebd ea2c 03be ecea aebd
00000230: 8267 b83c 8e59 c4bd 9730 b33c dc83 13bf
00000240: 42a5 28bc c247 15bb 6e69 dd3c 422d c73c
00000250: b70d c7bb 1678 a6bd c9f5 ccbd 798e 88bd
00000260: 04e2 9dbd b545 79bd 3990 6abe 3b65 0a3d
00000270: c743 693c b3da 1abd 4737 dcbd c33c 35bc
00000280: af53 eebd d035 22bd cfae 2cc2 2f99 9c3c
00000290: 1399 14be f51b dabb 0feb c6bd ed52 563c
000002a0: 1844 d6bc d0dc 31bd 84e7 78bc 15f3 03be
000002b0: 1987 723c c620 d7bc 40b3 ca3d 0bbd 1abe
000002c0: 684e 7fbd d78f 95bd 3b53 d8bd 9019 4f3c
000002d0: 76b4 90bd f761 6a3c 7447 a93d 0bff 31bb
000002e0: 1ded 2e3d 8966 9bbc 958b 7dbd 116f 01be
000002f0: e63e edbd a84c 31be 165c 0cbd 4e93 f7bd
00000300: 0fec 94bd e11f bc3d 543a cfbd e855 f1bd
00000310: 14af 2ebe 27f0 35bd dd61 ffbc 2145 97bd
00000320: 3b2a 8fbd d0ad aebd 211b 9fbd 78dc 99bd
00000330: 7bf9 13bf 3aed a83a 86e6 d93c 6c5d 203e
00000340: f98e 21be e174 c0bd 43f0 9f3c a69d d1bd
00000350: c14b 4cbe 24f7 edbd c578 d1bd c8c1 3ebd
00000360: d119 5bbd 6471 1e3e 168d 15bd aa89 dcbd
00000370: 41d0 a73c 948c bf3c 1758 efbd 577b 26bc
00000380: f417 afbd 27b1 25be 624a 7bbe 5916 e7bc
00000390: 4302 10be 4ae8 08be 2f45 42c1 1665 e7bc
000003a0: 04b3 d2bd 4e93 b3ba 7a70 9ebe ff43 56be
000003b0: 0592 80bd 0108 8fbd 3f7f e2bd 7b70 02be
000003c0: 0b3f 933d 67d8 8cbd ed8d 1b3d f062 593d
000003d0: 2f8e 383d c641 c3bd 324b 543d c61a 9fbd
000003e0: c87a ccbc 5ed6 62bd 45b8 3c3d 60d0 bfbc
000003f0: 50cc 5e3d 03c5 2cbd 863c 77bd 8243 ebbc
-0.025641728 -0.06176913 -0.016086675 -1.2379416 0.01398754 -0.0057242536 -0.0028097085 1.2798146e-05
-0.002882947 0.032724082 -0.019445706 0.02790126 -0.046280596 -0.03889055 0.020323403 -0.83635265
0.025615491 0.04674731 0.02408444 -0.0056098737 -0.050426483 -0.054276057 0.023006987 -0.05849211
-0.07963694 -0.07367934 0.007343267 -0.018852435 0.026879193 0.009584879 -0.04075976 -0.018346056
-0.012374953 0.024578927 -0.6878862 0.0211972 0.0058820187 0.010473786 -0.05877675 -0.022413883
-0.034263123 -0.009487061 -0.050034944 0.014605007 -0.09308312 -0.01326473 -0.024418425 -0.03941456
-0.042448685 -0.05313107 0.03911688 -0.033320922 -0.021886507 0.030343834 0.030163305 0.01024212
0.037584394 -0.01372259 -0.05761425 -0.08821464 -0.066447586 -0.061216217 0.012658692 0.057187017
-0.07775412 0.0076803737 -0.113501735 0.017041069 0.025796715 -0.0011224896 0.05516232 -0.043106947
0.021854343 -0.0026007332 0.049507428 0.010569503 -0.32920596 0.008189246 -0.056898054 0.17421167
0.0092304945 -0.020345971 0.056433313 0.023881588 0.011716843 -0.06520672 -0.10815215 -0.16963774
0.061862946 0.07841933 -0.15111725 -0.08168376 -0.08045631 -0.054575063 0.02569298 -0.04157248
-0.044209864 0.00096006016 -0.027825933 -0.05632085 -0.022530206 0.042042993 0.33722982 0.013467436
-0.0314304 0.048681475 0.013201183 -0.033252895 -0.046395592 0.08501065 0.010755244 0.008529835
0.111546606 -0.07140549 -0.035278752 -0.09940128 -0.023006504 -0.018401336 -0.015123325 -0.036884375
0.046301447 -0.042653747 0.008427211 0.09865724 -0.04243466 0.08550432 0.0040390203 0.016410723
-0.111263916 -0.062329378 -0.11316689 -12.770483 -0.0048869406 -0.13053817 0.044795707 -0.026026221
-0.038148973 -0.06940422 -0.12810102 -0.085409015 0.022510294 -0.09587394 0.021873755 -0.57623076
-0.010293307 -0.0022778367 0.027027812 0.024313573 -0.006074633 -0.08128373 -0.10007817 -0.066677995
-0.07709125 -0.060857493 -0.22906579 0.033787947 0.014237351 -0.037806224 -0.10752731 -0.01106185
-0.11637055 -0.0396021 -43.17071 0.019116012 -0.14511518 -0.006656165 -0.097128026 0.0130812945
-0.026155517 -0.043423474 -0.015191916 -0.12885697 0.014802718 -0.026260745 0.098974705 -0.15111177
-0.062330633 -0.07302826 -0.1056275 0.012640372 -0.0706567 0.014305583 0.08265582 -0.0027160074
0.042706598 -0.018969791 -0.061900694 -0.12640025 -0.115842625 -0.17314398 -0.034267507 -0.12088643
-0.07271587 0.09185768 -0.10118547 -0.117839634 -0.17058975 -0.04441848 -0.031174595 -0.07386232
-0.06990477 -0.08529246 -0.07768846 -0.07512754 -0.5780255 0.0012888082 0.02659918 0.15660638
-0.15777196 -0.09397293 0.019523745 -0.10235147 -0.19950773 -0.11619404 -0.10228113 -0.046571523
-0.053491417 0.15472943 -0.036511503 -0.10768445 0.020485045 0.023382463 -0.11686724 -0.010161242
-0.085494906 -0.1618086 -0.24540094 -0.028208898 -0.14063363 -0.13369861 -12.141891 -0.028246444
-0.10288051 -0.0013700516 -0.30945188 -0.20924376 -0.06277851 -0.069839485 -0.110594265 -0.1273822
0.07189759 -0.06877213 0.037977148 0.05307287 0.04505747 -0.0953403 0.051829524 -0.077687785
-0.02496089 -0.055380218 0.04607417 -0.02341479 0.054394066 -0.042180073 -0.060360454 -0.028718714

layers.4.bias f4 [5]
00000000: 7c9e adbf 419e 9dbf 0b2a cd3f 0ed3 ba3f
00000010: c46e 75bf
-1.356399 -1.231392 1.6028455 1.4595659 -0.9587214
